zynq/python/w64-16-10/model_weight1_custom.npy (npy, 1152 bytes, 1 tensors)

array (column-major) i1 [64, 16]
0	0xf4	-12
1	0xf7	-9
2	0x06	6
3	0xed	-19
4	0xf9	-7
5	0xf6	-10
6	0xf3	-13
7	0x05	5
8	0x03	3
9	0xfd	-3
10	0xfb	-5
11	0xef	-17
12	0xed	-19
13	0xf8	-8
14	0xf0	-16
15	0xf6	-10
16	0x09	9
17	0x0d	13
18	0x0c	12
19	0x03	3
20	0xfe	-2
21	0x14	20
22	0x05	5
23	0xfa	-6
24	0xf6	-10
25	0x10	16
26	0x1d	29
27	0xfa	-6
28	0x2c	44
29	0x0f	15
30	0xf7	-9
31	0xee	-18
32	0x07	7
33	0x0d	13
34	0x07	7
35	0x14	20
36	0x33	51
37	0x12	18
38	0xfc	-4
39	0xf9	-7
40	0x08	8
41	0xdf	-33
42	0xdd	-35
43	0xde	-34
44	0xf8	-8
45	0xe8	-24
46	0xd2	-46
47	0x03	3
48	0x08	8
49	0x00	0
50	0x05	5
51	0xff	-1
52	0x03	3
53	0x00	0
54	0x02	2
55	0x02	2
56	0x03	3
57	0x10	16
58	0x17	23
59	0xff	-1
60	0x15	21
61	0x21	33
62	0x12	18
63	0x0f	15
64	0xf9	-7
65	0xff	-1
66	0x0c	12
67	0xff	-1
68	0x02	2
69	0x11	17
70	0xf4	-12
71	0xf2	-14
72	0x0c	12
73	0xfe	-2
74	0xfb	-5
75	0x00	0
76	0x1d	29
77	0x21	33
78	0x02	2
79	0xfa	-6
80	0x0b	11
81	0xf0	-16
82	0x03	3
83	0x1a	26
84	0x09	9
85	0xfd	-3
86	0xe6	-26
87	0x02	2
88	0xf3	-13
89	0xf5	-11
90	0x0a	10
91	0xf2	-14
92	0xf2	-14
93	0x00	0
94	0x00	0
95	0xf4	-12
96	0x07	7
97	0x0b	11
98	0x04	4
99	0x09	9
100	0xe4	-28
101	0xf6	-10
102	0xff	-1
103	0xf7	-9
104	0x01	1
105	0x0d	13
106	0x02	2
107	0xe9	-23
108	0xed	-19
109	0x00	0
110	0x10	16
111	0x01	1
112	0x09	9
113	0x13	19
114	0x2e	46
115	0x25	37
116	0x20	32
117	0x11	17
118	0x06	6
119	0xf2	-14
120	0xf4	-12
121	0xf6	-10
122	0x06	6
123	0x09	9
124	0x05	5
125	0x0e	14
126	0x0d	13
127	0x03	3
128	0x01	1
129	0x0e	14
130	0xf4	-12
131	0xff	-1
132	0xfe	-2
133	0x07	7
134	0xfa	-6
135	0x0a	10
136	0xfb	-5
137	0x0b	11
138	0x09	9
139	0x19	25
140	0x24	36
141	0x1c	28
142	0xfd	-3
143	0xf7	-9
144	0xf0	-16
145	0x11	17
146	0xf7	-9
147	0x02	2
148	0x0a	10
149	0x11	17
150	0x09	9
151	0xf8	-8
152	0x03	3
153	0xe7	-25
154	0xe0	-32
155	0x0e	14
156	0x1b	27
157	0xf9	-7
158	0xe2	-30
159	0x00	0
160	0xfb	-5
161	0xf8	-8
162	0xf1	-15
163	0x29	41
164	0x0b	11
165	0x04	4
166	0xf6	-10
167	0x01	1
168	0x11	17
169	0x21	33
170	0x01	1
171	0xe4	-28
172	0x00	0
173	0x11	17
174	0x12	18
175	0x01	1
176	0xfa	-6
177	0x15	21
178	0x1c	28
179	0x12	18
180	0x1b	27
181	0x12	18
182	0xfe	-2
183	0x01	1
184	0xfc	-4
185	0x0b	11
186	0x0e	14
187	0x09	9
188	0xef	-17
189	0x00	0
190	0xf2	-14
191	0xfd	-3
192	0xfe	-2
193	0x09	9
194	0xf5	-11
195	0x01	1
196	0xf5	-11
197	0xf3	-13
198	0x02	2
199	0xf5	-11
200	0x0c	12
201	0xf8	-8
202	0xfd	-3
203	0x06	6
204	0x19	25
205	0x04	4
206	0x00	0
207	0x02	2
208	0x0a	10
209	0x00	0
210	0xfd	-3
211	0xf7	-9
212	0x0c	12
213	0x0a	10
214	0x0c	12
215	0xfb	-5
216	0xf5	-11
217	0xfd	-3
218	0x03	3
219	0xfe	-2
220	0xd9	-39
221	0xf7	-9
222	0x16	22
223	0xfa	-6
224	0x00	0
225	0x17	23
226	0x1a	26
227	0xf2	-14
228	0xd8	-40
229	0x06	6
230	0x17	23
231	0x04	4
232	0x00	0
233	0xfc	-4
234	0x20	32
235	0x08	8
236	0x13	19
237	0x1c	28
238	0xff	-1
239	0x06	6
240	0xfa	-6
241	0xfa	-6
242	0xf9	-7
243	0x00	0
244	0x10	16
245	0x08	8
246	0x09	9
247	0xfc	-4
248	0x02	2
249	0xf3	-13
250	0xf4	-12
251	0xfc	-4
252	0xe5	-27
253	0x0d	13
254	0xf8	-8
255	0xf9	-7
