zynq/python/custom/model_weight1_custom.npy (npy, 1152 bytes, 1 tensors)

array (column-major) i1 [64, 16]
0	0xfd	-3
1	0xff	-1
2	0xff	-1
3	0x00	0
4	0xfe	-2
5	0x02	2
6	0xfe	-2
7	0x03	3
8	0xfd	-3
9	0x00	0
10	0x00	0
11	0x02	2
12	0xfe	-2
13	0x01	1
14	0x04	4
15	0x00	0
16	0x01	1
17	0x05	5
18	0x01	1
19	0xff	-1
20	0xfc	-4
21	0x01	1
22	0x03	3
23	0x05	5
24	0x03	3
25	0x02	2
26	0x00	0
27	0xff	-1
28	0xf1	-15
29	0x04	4
30	0x04	4
31	0xff	-1
32	0x00	0
33	0x03	3
34	0x01	1
35	0xff	-1
36	0xf6	-10
37	0x09	9
38	0x01	1
39	0x01	1
40	0x00	0
41	0x06	6
42	0xfd	-3
43	0xf9	-7
44	0x08	8
45	0x05	5
46	0xfb	-5
47	0x04	4
48	0xfd	-3
49	0x04	4
50	0x03	3
51	0x00	0
52	0x06	6
53	0x00	0
54	0x05	5
55	0xff	-1
56	0xfd	-3
57	0x00	0
58	0xfe	-2
59	0x00	0
60	0x00	0
61	0xff	-1
62	0x00	0
63	0xfe	-2
64	0x02	2
65	0x00	0
66	0x00	0
67	0x01	1
68	0xfd	-3
69	0x00	0
70	0x03	3
71	0x03	3
72	0x03	3
73	0x03	3
74	0x01	1
75	0x05	5
76	0x00	0
77	0x00	0
78	0x03	3
79	0x03	3
80	0x02	2
81	0x05	5
82	0x07	7
83	0x02	2
84	0x01	1
85	0x00	0
86	0xfe	-2
87	0x08	8
88	0xff	-1
89	0xfe	-2
90	0xfb	-5
91	0xfd	-3
92	0x02	2
93	0x03	3
94	0xfb	-5
95	0xfe	-2
96	0x00	0
97	0x03	3
98	0x00	0
99	0x05	5
100	0x02	2
101	0x08	8
102	0x04	4
103	0xfb	-5
104	0x00	0
105	0x03	3
106	0xf6	-10
107	0xf4	-12
108	0x02	2
109	0x06	6
110	0x00	0
111	0xfd	-3
112	0x00	0
113	0x06	6
114	0x02	2
115	0x02	2
116	0x07	7
117	0x01	1
118	0xfd	-3
119	0x00	0
120	0x00	0
121	0x01	1
122	0x10	16
123	0x11	17
124	0x0c	12
125	0x08	8
126	0x04	4
127	0x00	0
128	0x00	0
129	0x00	0
130	0x01	1
131	0x02	2
132	0xfd	-3
133	0xfe	-2
134	0x00	0
135	0xfe	-2
136	0xfe	-2
137	0xfe	-2
138	0x00	0
139	0x0a	10
140	0x02	2
141	0x02	2
142	0xfe	-2
143	0x02	2
144	0xff	-1
145	0xfe	-2
146	0x05	5
147	0x0a	10
148	0x03	3
149	0x03	3
150	0xfc	-4
151	0x00	0
152	0x01	1
153	0x00	0
154	0x02	2
155	0xf6	-10
156	0xf9	-7
157	0x00	0
158	0xfe	-2
159	0x01	1
160	0x01	1
161	0xff	-1
162	0xff	-1
163	0xfe	-2
164	0xfb	-5
165	0xf8	-8
166	0xf8	-8
167	0x00	0
168	0xfd	-3
169	0x00	0
170	0xfe	-2
171	0xfe	-2
172	0xfd	-3
173	0x02	2
174	0x08	8
175	0x00	0
176	0x02	2
177	0x01	1
178	0x04	4
179	0x06	6
180	0x07	7
181	0x08	8
182	0x09	9
183	0x02	2
184	0xff	-1
185	0x00	0
186	0xfe	-2
187	0xff	-1
188	0xfe	-2
189	0x00	0
190	0xff	-1
191	0x01	1
192	0x01	1
193	0x01	1
194	0x05	5
195	0x01	1
196	0x01	1
197	0x03	3
198	0x02	2
199	0x00	0
200	0x00	0
201	0xfd	-3
202	0x01	1
203	0x00	0
204	0x01	1
205	0x00	0
206	0x06	6
207	0x00	0
208	0xff	-1
209	0x01	1
210	0x02	2
211	0x00	0
212	0x05	5
213	0x00	0
214	0x07	7
215	0x09	9
216	0xfb	-5
217	0xfa	-6
218	0x00	0
219	0x08	8
220	0xfe	-2
221	0xfe	-2
222	0x04	4
223	0x02	2
224	0x02	2
225	0x03	3
226	0x07	7
227	0x0d	13
228	0xfc	-4
229	0x09	9
230	0x08	8
231	0x01	1
232	0xff	-1
233	0x0b	11
234	0x09	9
235	0x00	0
236	0x03	3
237	0x00	0
238	0x00	0
239	0xfa	-6
240	0x01	1
241	0xfb	-5
242	0x00	0
243	0x04	4
244	0x01	1
245	0xf9	-7
246	0xf9	-7
247	0xfd	-3
248	0x00	0
249	0xfa	-6
250	0xfb	-5
251	0xff	-1
252	0xfe	-2
253	0xf8	-8
254	0xfe	-2
255	0x03	3
