zynq/python/model_weights.npy (npy, 20608 bytes, 1 tensors)

array f8 [10, 256]
00000000: c9d8 0132 e407 83be f1ea fe9c 32e8 fc3e
00000010: acd0 eb53 2d00 513f eb21 1808 ad36 a13f
00000020: 363b 3f30 5ba8 bd3f 878d 67be 9b2c b53f
00000030: c7c8 ce85 e448 b93f 1246 7af4 d813 ca3f
00000040: 0b9c 9bc8 da69 a03f 1825 320b 4eea c03f
00000050: c77f 3cf7 2713 ba3f 1d34 c838 489a c23f
00000060: 32c0 791f 139f ac3f 78cb b8af fd60 a53f
00000070: f307 dbc0 ee72 313f 7317 ce22 9ad4 b33e
00000080: aa6d 9cfe 27f7 f63e c166 e9e8 186f 683f
00000090: 9998 3dc7 0238 a53f 2d78 c193 dd3a c0bf
000000a0: b0fd 5b7c 3672 a73f 2890 3936 8d54 bdbf
000000b0: 07b8 4db1 654c 753f 8e93 f4da f18e 9fbf
000000c0: 751b af9c 3049 aabf e21d 4c78 8c2e b9bf
000000d0: e9f4 7442 5c51 babf 1815 4c07 d13c c4bf
000000e0: d511 1277 75be b9bf 3693 de98 5693 b6bf
000000f0: c3db 9924 68a5 973f c01e e66d 6b1a 603f
00000100: 2532 3792 6421 5d3f 49f2 83d7 3f5d 813f
00000110: d4d5 4f77 aa15 77bf 5104 8289 3b01 a6bf
00000120: 110e 061d 8093 6a3f ccaf 7eb6 c79b a2bf
00000130: 8256 737e 0ff3 93bf 8d8d 61d9 9810 8d3f
00000140: c023 0b80 18b4 7e3f f1d0 6d4c e242 7d3f
00000150: 86e9 446e f77a 82bf 7530 876f 61bf 523f
00000160: 12a2 e326 28ab a1bf 79e5 192e e0b7 afbf
00000170: 1c98 f878 d211 abbf 11ef cae6 d47e a7bf
00000180: 62c2 14f6 3f54 66bf ce35 1299 184d adbf
00000190: 7b5d d581 de8b 56bf aa1d e761 d43e 66bf
000001a0: 4ee4 261a a5f6 8dbf 50a4 d05a 3b04 a0bf
000001b0: 549a f7ff 287c 9bbf e612 ae56 7372 9c3f
000001c0: efb8 9d30 c973 8a3f aa8f 9a7f ef7e 803f
000001d0: 931d d39a 60c8 893f 98f6 96d3 a44e 80bf
000001e0: b51e 47cd 848c 56bf 34e6 8023 5c61 b6bf
000001f0: ad0b 2b27 66c2 afbf 2fd5 ef5e 84b2 b7bf
00000200: f095 16c3 abab ad3f b414 0810 05be b2bf
00000210: 698c aa73 73e1 86bf d160 2129 bcda 873f
00000220: 3861 3c06 ecb1 403f 6f28 453c c22e 863f
00000230: 684a 8e7c 40a5 2a3f 4cb1 2c29 743e 953f
00000240: dbe1 12ab 3822 a53f ca25 4a69 455c a33f
00000250: cb8c 84f8 95cf a23f 5882 33c1 3744 023f
00000260: e839 18c5 1028 76bf 8b53 bb65 32b6 a3bf
00000270: e957 88d1 e402 c9bf 51c5 6293 cf48 a63f
00000280: 9092 0655 7f16 a33f de93 83da 848c 86bf
00000290: 9195 0847 4851 8ebf c59c bcb1 4771 7b3f
000002a0: 7978 a468 f8b2 763f 97aa e555 de07 7a3f
000002b0: f962 89d5 9ade 7bbf 4cd4 c05e 8f52 913f
000002c0: e573 b397 618b a83f a96a 5b53 8102 a23f
000002d0: 27d7 35d3 6a5a 9a3f c7b0 7a8a 2f01 aa3f
000002e0: 9a09 ef5b 40a3 843f acd0 3537 8a06 9f3f
000002f0: f7ba af0e 9ce0 cdbf b359 da69 f134 8ebf
00000300: ce25 996c 2ec3 993f 7aed 71a4 3414 afbf
00000310: 2825 b562 66a9 8abf 8374 937e db61 9bbf
00000320: f61c b6cc 5014 8f3f 54e5 d56e b552 893f
00000330: 5bd3 cd94 34f3 903f 0ba9 6544 fd4d 113f
00000340: 8988 65e6 3ae7 a1bf e87a 3421 01ab 72bf
00000350: b13c 1ca4 d429 903f 30b8 44dd 62d2 b03f
00000360: 063d c515 0606 b03f bcfd 7f85 8695 bc3f
00000370: ff19 100a ac68 cdbf ce59 439d 654d c6bf
00000380: 770e f90f 22bd b93f 75ee 1748 7aba 9b3f
00000390: 6dee eb6a 8921 b7bf 1c2e 9e96 501c 863f
000003a0: 2426 0d24 47d1 7fbf 5b39 9b46 9ea7 8c3f
000003b0: 0140 85ce 030e 7b3f 1687 19af cdf8 a6bf
000003c0: fb83 8338 86e7 b6bf 640f f210 63d4 a6bf
000003d0: e693 5152 ced4 b3bf 68f7 4f7a d5cf a7bf
000003e0: f371 c0d3 7363 b13f 7863 abec ae5b c03f
000003f0: 180b d933 1b17 9abf 86db a539 5623 a6bf
00000400: e08e 8493 87fb ab3f a3f7 2976 7072 b8bf
00000410: e841 a78b 54b2 a3bf d728 08b4 e75a a03f
00000420: befc ee62 ec44 a23f e530 8466 b48d ae3f
00000430: 3d33 be81 05c6 863f ef0d 7381 4136 b1bf
00000440: 5348 58c3 b3e3 99bf b8e9 9dd2 040e adbf
00000450: f8ba 3bbe 30d3 afbf 9695 015d f4b6 743f
00000460: cd98 087d ff4b b03f 8ec1 03e9 271c 343f
00000470: 87e0 0bc6 7c8d b3bf d1de 7b06 0d75 a1bf
00000480: 98c4 06b3 5ffc 9e3f 958a ce49 f763 c1bf
00000490: 9793 6c39 2fc1 8b3f 7abd f07b ee78 a13f
000004a0: 7e86 25e3 fdb7 903f 2744 9053 6f88 a03f
000004b0: 3273 43a0 e6d4 8ebf 4e56 4e50 dcfa b0bf
000004c0: 01a0 ac2a f0df b0bf 323c c9e6 0fa2 adbf
000004d0: f5b9 278a 6eb2 90bf af0c 3728 4c08 a23f
000004e0: 2d9b cc7c 7188 9ebf baa2 e1aa a4f5 913f
000004f0: d438 712c 0e6c 663f 88fd 5112 7464 8f3f
00000500: 721d 6af2 fbf1 ad3f 6505 5a08 3fd1 c1bf
00000510: 0cac d0dc 5f38 94bf 9c53 8488 8ea0 a13f
00000520: 1b07 77e0 b414 a83f 38ea b422 c999 803f
00000530: caff 93e6 37ab 62bf c0ad 1407 2c24 a2bf
00000540: fccd bd41 5d3e a5bf b177 1397 f92f 71bf
00000550: ddf9 231c de6a 733f 74cb 0cb0 8a70 98bf
00000560: 87a8 e1af 81bf 5dbf 527b 885e ae6a 92bf
00000570: 6ebc bd5c 8984 613f 6157 5d21 5593 c1bf
00000580: f3af de56 f1f3 c33f fd38 d0ba 9c3c a3bf
00000590: 9005 6262 ef0d 99bf dfff d220 e7f3 97bf
000005a0: ba6f 5ffb 3f92 923f a768 4350 9390 963f
000005b0: 49ac 7bbf ef22 883f 29a8 12f8 c8ed 993f
000005c0: 15cf fa31 31ec 68bf efdc e196 fa74 8dbf
000005d0: e940 c45e 7e3f 87bf 35bf c47f 9728 79bf
000005e0: eda2 633a 8d22 703f 8f9d e1c0 776e a2bf
000005f0: fe02 e004 6153 933f dba2 1356 c49c adbf
00000600: 6670 0c92 9839 88bf 2ff0 2a97 096c a5bf
00000610: 46d1 0173 f054 98bf 23aa 87d3 0a1c 973f
00000620: a227 252d 7f93 8dbf 0206 c5a0 88e7 993f
00000630: 6b36 05b3 73e1 9e3f 4272 355c c911 833f
00000640: a1c0 3064 a221 9b3f 1a42 4059 ae78 7ebf
00000650: 7e9d 2266 2965 96bf 650a e646 6fc0 94bf
00000660: 71a9 4a8d 3393 88bf b677 5de2 51f3 90bf
00000670: 890d 090c 5f0a ab3f 94db 8afa 9377 c73f
00000680: 1c0c f116 6c88 35bf 3b9f a3d7 7bd6 9f3f
00000690: fbda 2847 4948 b0bf 53bf c0d1 e65e 91bf
000006a0: 2841 87f0 773c 8a3f 2467 fbfb 9d0c 653f
000006b0: 7513 46e0 41b6 893f 9a9d b9bf 7bc3 9a3f
000006c0: b593 90a5 b027 903f 8e83 f921 0fd2 943f
000006d0: 7f86 0008 85ff 383f 6260 fbde c899 8dbf
000006e0: 9a7d dc74 81fd 94bf 9a56 b610 57f7 903f
000006f0: afb4 98f6 5e31 b3bf 1233 1f97 3183 a6bf
00000700: 28cd 7df9 3d8a 46bf d5c1 c98d cda2 97bf
00000710: f55e cfa7 cdcb 79bf 5712 e986 1620 b1bf
00000720: 755a d43d 4002 b6bf db28 7dc7 f1d7 b0bf
00000730: eeb2 7aa7 69f0 b1bf 0d0b e10f db8e b2bf
00000740: abea fe2d 4fbd a5bf 25a7 4a01 c97e 9cbf
00000750: 9f5f 0c4a 9778 6cbf 3798 2ffb 2816 6fbf
00000760: e57d d53f 57dd 6abf cb84 d6b1 cc33 babf
00000770: 7e33 6394 4ae9 a4bf 36d4 692d 4c89 693f
00000780: 9f51 c596 a0a5 c9be 29d2 be7f 6e15 323f
00000790: a370 5627 12d9 9d3f 1582 8cad e6f9 c3bf
000007a0: f814 f661 57e8 c0bf 92fc 9f32 1f52 c5bf
000007b0: 6a29 0d88 95dc babf f104 e5f2 d633 bebf
000007c0: 08b8 fb54 f184 c1bf c657 fbcf 0e6e babf
000007d0: 75e5 857a 4859 bdbf 6c61 af33 1451 8bbf
000007e0: de63 e567 9f8e cebf 0afe 0674 cd4e bcbf
000007f0: 62ec 0c8b 7c36 50bf fb78 20a9 62d1 f93e
-1.417907009614146e-07 2.7567884728556034e-05 0.0010376398710692332 0.03362026904875733 0.11585016181855398 0.08271191977069324 0.09876850382605361 0.20373069703468666
0.03205760668588916 0.13215041681932216 0.10185479913752636 0.1453333165412979 0.05590114363883493 0.04175560731928035 0.0002662499326612215 1.1819885330234758e-06
2.1901563662313967e-05 0.002982662822699961 0.041442953893054475 -0.1267964335883688 0.04579324977930399 -0.11457140516137143 0.005199811207473821 -0.030818728436446778
-0.051339644552675624 -0.09836652695604856 -0.1028039610145758 -0.1581059728270382 -0.10056242138859457 -0.08818570358432684 0.023091914400051438 0.001965722868764036
0.0017779810085470995 0.008478640331753289 -0.005635896571211291 -0.04297815373957604 0.0032441618170098237 -0.03634475805969792 -0.019481889813354865 0.014191812642997426
0.007495971397198653 0.007143863657678149 -0.009023602535866326 0.001144261505134939 -0.03450894808503703 -0.06194973528631471 -0.05287034727761883 -0.045889523671091344
-0.002725720333409052 -0.05722882145446882 -0.0013761208459380492 -0.0027155063719168275 -0.014630594120591447 -0.031282286487404165 -0.026840820906637156 0.027780344167257186
0.012916156574388242 0.00805461033025508 0.012589220738290751 -0.007962501246648032 -0.0013762757199503987 -0.08742309443268753 -0.06203002193571847 -0.09256770437044247
0.057950370373230586 -0.07321197167773869 -0.011172201125481078 0.011647672658157056 0.0005094912016572533 0.010831372703837354 0.00020328914822849713 0.020746054661843247
0.041276713259722896 0.037813347914446974 0.03674000414528108 3.484053754632528e-05 -0.005409303195405425 -0.038499426763940546 -0.19540081244548382 0.043524252644952306
0.037281016472921924 -0.011010206144826225 -0.014803471248408669 0.006699829154775465 0.005541773173062586 0.006355160234628918 -0.006804089375315619 0.0169165040571964
0.0479383943254346 0.0351753629926937 0.02573553957105115 0.05079029622479108 0.01007700233993063 0.030298385257495994 -0.23341704098807955 -0.014749418299555872
0.02515862024146092 -0.060701031755310234 -0.013018417250935402 -0.026740483856759766 0.015175467726989283 0.012364785618717157 0.016552754957462095 6.601198501746481e-05
-0.034967270493113274 -0.004557613766592118 0.015784571186540478 0.06571023847638524 0.06259191543107442 0.11165657767559528 -0.22975683680870415 -0.17423696688520213
0.10054219140971009 0.027078543329464872 -0.09035548077002327 0.01079619369172407 -0.007767942327356479 0.013991581468329064 0.006605162496569506 -0.04486696970412944
-0.08947028045396614 -0.04458913404326273 -0.07746591100438102 -0.046507521801671114 0.06792377395363029 0.1277979522335746 -0.025478768386402256 -0.0432383485194157
0.054653393514198845 -0.09549620518552486 -0.03846992687943268 0.03194355080275251 0.035682093693588865 0.059674870981412366 0.011119883558217242 -0.06723412905107982
-0.025282677457717572 -0.056747580251755136 -0.06215812990364172 0.005057291549836937 0.0636596374757545 0.0003068540036244232 -0.07637767634503421 -0.03409615234516895
0.03025960474196107 -0.13586321929786452 0.013552063884682925 0.0341257597250388 0.016326872815062725 0.03229091544211143 -0.01505451370797459 -0.06632782898517428
-0.06591702501157216 -0.05787706081593348 -0.016305663282702516 0.03521955481439797 -0.02981736492361191 0.01753861706711988 0.002737071688478124 0.015328318413820666
0.05848681768571397 -0.13919818790240437 -0.01974630151032035 0.03442807594743799 0.04703297843981443 0.008105822917618175 -0.002278908902212583 -0.0354322203296209
-0.041491426730228625 -0.004196143113601212 0.004740588776483948 -0.02386681270145226 -0.0018156782603236125 -0.017985081214756456 0.0021383936745489806 -0.13730873231059618
0.1558820413750933 -0.03757180958210602 -0.024467220668616785 -0.023391353014403534 0.018136024205759084 0.022035886548885355 0.011785386115169898 0.025321140423933883
-0.003042312702598591 -0.014383275727807702 -0.011351573245093909 -0.006142226975768318 0.003939201042364654 -0.03599905232914146 0.018872753069447683 -0.057836661822710154
-0.011828605610894449 -0.041839885428516126 -0.023761517543293274 0.02256791034771245 -0.014441484036655631 0.025297293484305435 0.030156905938659422 0.00931126892708634
0.026495492329730145 -0.007439309167253794 -0.021870276316489072 -0.02026533003073396 -0.011999514340762048 -0.01655319160578702 0.05281350156703996 0.18333673223034153
-0.00032856596857672323 0.031091628109521024 -0.06360300051970207 -0.01696358351927014 0.012810647037355752 0.002569492877097528 0.012554659516135417 0.02613633496949106
0.015776405434866542 0.020332561920784857 0.0003814410956711547 -0.014453477196568257 -0.020498297460219563 0.01656852759841474 -0.07497209091589484 -0.04396967859029223
-0.0006878664598687677 -0.023081981448230444 -0.006297877637699169 -0.06689587396346873 -0.08597184667119413 -0.06579505081495844 -0.07007465685701295 -0.07249230516121603
-0.04245994030448704 -0.02782739706405048 -0.003475471007174449 -0.0037947464384045187 -0.0032793716515440046 -0.10235289899584925 -0.040842371572217026 0.003117226394631102
-3.057358460770677e-06 0.0002759356282198444 0.029148372317295067 -0.1560638759047072 -0.13209049494995617 -0.16656866046830437 -0.10492834636275963 -0.11797851018947704
-0.13686958932470383 -0.1032418496864401 -0.11464360228810284 -0.013338239505103565 -0.23872749875115934 -0.11057743151376812 -0.000989553093133443 2.462187928397532e-05
