zynq/python/model_weights_fixed.npy (npy, 2688 bytes, 1 tensors)

array i1 [10, 256]
0 0 0 2 7 5 6 13
2 8 6 9 3 2 0 0
0 0 2 -8 2 -7 0 -1
-3 -6 -6 -10 -6 -5 1 0
0 0 0 -2 0 -2 -1 0
0 0 0 0 -2 -3 -3 -2
0 -3 0 0 0 -2 -1 1
0 0 0 0 0 -5 -3 -5
3 -4 0 0 0 0 0 1
2 2 2 0 0 -2 -12 2
2 0 0 0 0 0 0 1
3 2 1 3 0 1 -14 0
1 -3 0 -1 0 0 1 0
-2 0 1 4 4 7 -14 -11
6 1 -5 0 0 0 0 -2
-5 -2 -4 -2 4 8 -1 -2
3 -6 -2 2 2 3 0 -4
-1 -3 -3 0 4 0 -4 -2
1 -8 0 2 1 2 0 -4
-4 -3 -1 2 -1 1 0 0
3 -8 -1 2 3 0 0 -2
-2 0 0 -1 0 -1 0 -8
9 -2 -1 -1 1 1 0 1
0 0 0 0 0 -2 1 -3
0 -2 -1 1 0 1 1 0
1 0 -1 -1 0 -1 3 11
0 1 -4 -1 0 0 0 1
1 1 0 0 -1 1 -4 -2
0 -1 0 -4 -5 -4 -4 -4
-2 -1 0 0 0 -6 -2 0
0 0 1 -9 -8 -10 -6 -7
-8 -6 -7 0 -15 -7 0 0
00000000: 0000 0002 0705 060d 0208 0609 0302 0000
00000010: 0000 02f8 02f9 00ff fdfa faf6 fafb 0100
00000020: 0000 00fe 00fe ff00 0000 0000 fefd fdfe
00000030: 00fd 0000 00fe ff01 0000 0000 00fb fdfb
00000040: 03fc 0000 0000 0001 0202 0200 00fe f402
00000050: 0200 0000 0000 0001 0302 0103 0001 f200
00000060: 01fd 00ff 0000 0100 fe00 0104 0407 f2f5
00000070: 0601 fb00 0000 00fe fbfe fcfe 0408 fffe
00000080: 03fa fe02 0203 00fc fffd fd00 0400 fcfe
00000090: 01f8 0002 0102 00fc fcfd ff02 ff01 0000
000000a0: 03f8 ff02 0300 00fe fe00 00ff 00ff 00f8
000000b0: 09fe ffff 0101 0001 0000 0000 00fe 01fd
000000c0: 00fe ff01 0001 0100 0100 ffff 00ff 030b
000000d0: 0001 fcff 0000 0001 0101 0000 ff01 fcfe
000000e0: 00ff 00fc fbfc fcfc feff 0000 00fa fe00
000000f0: 0000 01f7 f8f6 faf9 f8fa f900 f1f9 0000
