zynq/python/model_weights_fixed.npy (npy, 2688 bytes, 1 tensors)

array i1 [10, 256]
-6 35 -53 127 60 32 26 69
0 44 29 63 34 127 -128 -26
-128 11 49 -64 14 -31 1 -8
-12 -25 -26 -41 -25 -29 25 127
127 7 -2 -8 0 -9 -5 3
1 1 -2 0 -8 -15 -14 -33
-128 31 -2 0 -3 -8 -6 7
3 2 3 -2 0 -22 -14 -30
127 -23 -2 3 0 2 0 5
10 9 9 0 -1 -9 -50 13
-2 -2 -3 1 1 1 -1 4
12 9 6 13 2 7 -60 -2
2 -16 -3 -6 3 3 4 0
-9 -1 4 16 16 28 -57 -68
85 5 -23 2 -2 3 1 -11
-23 -11 -19 -11 17 32 -6 -11
78 -36 -9 8 9 15 2 -17
-6 -14 -15 1 16 0 -19 -14
120 -38 3 8 4 8 -3 -16
-16 -14 -4 9 -7 4 0 7
-14 -36 -5 8 12 2 0 -9
-10 -1 1 -6 0 -4 1 -39
127 -15 -5 -6 4 5 3 6
0 -3 -2 -1 1 -9 7 -48
-128 -9 -6 5 -3 6 7 2
6 -1 -5 -5 -3 -3 8 127
-128 32 -18 -4 3 0 3 6
4 5 0 -3 -5 3 -10 -128
-128 0 -2 -16 -22 -16 -17 -18
-10 -7 0 -1 1 -22 -65 127
-24 127 24 -47 -33 -43 -27 -30
-35 -26 -30 -1 -67 -128 10 -128
00000000: fa23 cb7f 3c20 1a45 002c 1d3f 227f 80e6
00000010: 800b 31c0 0ee1 01f8 f4e7 e6d7 e7e3 197f
00000020: 7f07 fef8 00f7 fb03 0101 fe00 f8f1 f2df
00000030: 801f fe00 fdf8 fa07 0302 03fe 00ea f2e2
00000040: 7fe9 fe03 0002 0005 0a09 0900 fff7 ce0d
00000050: fefe fd01 0101 ff04 0c09 060d 0207 c4fe
00000060: 02f0 fdfa 0303 0400 f7ff 0410 101c c7bc
00000070: 5505 e902 fe03 01f5 e9f5 edf5 1120 faf5
00000080: 4edc f708 090f 02ef faf2 f101 1000 edf2
00000090: 78da 0308 0408 fdf0 f0f2 fc09 f904 0007
000000a0: f2dc fb08 0c02 00f7 f6ff 01fa 00fc 01d9
000000b0: 7ff1 fbfa 0405 0306 00fd feff 01f7 07d0
000000c0: 80f7 fa05 fd06 0702 06ff fbfb fdfd 087f
000000d0: 8020 eefc 0300 0306 0405 00fd fb03 f680
000000e0: 8000 fef0 eaf0 efee f6f9 00ff 01ea bf7f
000000f0: e87f 18d1 dfd5 e5e2 dde6 e2ff bd80 0a80
