zynq/python/model_weight1_custom.npy (npy, 1152 bytes, 1 tensors)

array (column-major) i1 [64, 16]
00000000: 0303 fefe 00fb fc00 0302 00fa fa05 0a00
00000010: 0307 03fb fc04 0001 00fd fd02 0203 fb01
00000020: 0304 0403 040b 0701 fe02 fdfa 00f6 f000
00000030: 02fe fdfd 0303 0000 00fd fb02 03f9 ff00
00000040: ff00 fffd 0202 ff00 0100 0100 fffc fcfd
00000050: 0400 fd00 0100 02fc 0506 0807 fa03 0400
00000060: 0402 01e3 fffe fc03 fffe f9fb 0103 0002
00000070: 00fb 0001 00fe fe00 0001 0504 050a fffd
00000080: 03fd ff03 0800 0103 0204 04ff 0000 fcff
00000090: 00fe fbfd 01fd fdf9 00fb ff06 0000 fffc
000000a0: fd06 0705 040a 0b09 fd00 0000 0508 0203
000000b0: fffc fbff faf4 f800 fd00 fdf6 f5f7 fb00
000000c0: fd00 fd01 00ff ff01 0001 0a02 fdfa f900
000000d0: 020b 0802 0500 01ff fffe fcf4 fdfc ff01
000000e0: fdf4 f7fb 0401 0401 fdfd fd05 05ff f900
000000f0: 0000 0002 00fb fb01 fefb fe00 02fe 00ff
3 3 -2 -2 0 -5 -4 0
3 2 0 -6 -6 5 10 0
3 7 3 -5 -4 4 0 1
0 -3 -3 2 2 3 -5 1
3 4 4 3 4 11 7 1
-2 2 -3 -6 0 -10 -16 0
2 -2 -3 -3 3 3 0 0
0 -3 -5 2 3 -7 -1 0
-1 0 -1 -3 2 2 -1 0
1 0 1 0 -1 -4 -4 -3
4 0 -3 0 1 0 2 -4
5 6 8 7 -6 3 4 0
4 2 1 -29 -1 -2 -4 3
-1 -2 -7 -5 1 3 0 2
0 -5 0 1 0 -2 -2 0
0 1 5 4 5 10 -1 -3
3 -3 -1 3 8 0 1 3
2 4 4 -1 0 0 -4 -1
0 -2 -5 -3 1 -3 -3 -7
0 -5 -1 6 0 0 -1 -4
-3 6 7 5 4 10 11 9
-3 0 0 0 5 8 2 3
-1 -4 -5 -1 -6 -12 -8 0
-3 0 -3 -10 -11 -9 -5 0
-3 0 -3 1 0 -1 -1 1
0 1 10 2 -3 -6 -7 0
2 11 8 2 5 0 1 -1
-1 -2 -4 -12 -3 -4 -1 1
-3 -12 -9 -5 4 1 4 1
-3 -3 -3 5 5 -1 -7 0
0 0 0 2 0 -5 -5 1
-2 -5 -2 0 2 -2 0 -1
