zynq/python/model_weights.npy (npy, 20608 bytes, 1 tensors)

array f8 [10, 256]
0	0xbf1921bb8c2dd1fe	-9.587008666562394e-05
1	0x3f41c0f1599fb278	0.0005417993991137645
2	0xbf4aacbd58923e47	-0.000814049200146224
3	0x3f6441571b934f4c	0.002472562916048837
4	0x3f4e128cb4f4d4fe	0.0009177386326998658
5	0x3f400029e332f37b	0.0004883007553854035
6	0x3f3a9f8d861b21fa	0.00040623860523372713
7	0x3f5161aeea6e7151	0.0010608871614073599
8	0x3ee3515158221a89	9.211372120410527e-06
9	0x3f4613b5653887ea	0.0006737361640640736
10	0x3f3d69bf9579315c	0.0004488079771121278
11	0x3f4fab95298e095c	0.0009664991695077885
12	0x3f411402d80e502e	0.0005211843382420028
13	0x3f66d02c3cd85119	0.002784811402998366
14	0xbf973c11a174bad7	-0.022690082053652496
15	0xbf3a0e20f31f6270	-0.00039757065235116514
16	0xbf6eeacac51cba9a	-0.0037740669585198507
17	0x3f279619ab88f76a	0.00017994941096504828
18	0x3f48a7fa35105f18	0.000752446338199572
19	0xbf5006a86e265b3f	-0.0009781498743898912
20	0x3f2c166ad797bb95	0.0002142911360318549
21	0xbf3f897082485635	-0.00048121449279512073
22	0x3ef911417b752d11	2.3906140737478774e-05
23	0xbf2181f907733439	-0.00013357319742227246
24	0xbf29866acfaa3a72	-0.00019474080894040267
25	0xbf39c0294fff9b5a	-0.00039292343717394417
26	0xbf3a65a13b885aac	-0.0004027861246255575
27	0xbf44c602695dd27d	-0.0006339561248141636
28	0xbf39ed709e04e935	-0.00039562224812396694
29	0xbf3d2e3a456f8d6e	-0.00044526026380094827
30	0x3f399129e80b4b0c	0.0003901221571542136
31	0x3f82e24e61e7f792	0.009220707285745342
32	0x3f706c8884860214	0.0040097553941227555
33	0x3f1cd95961cb5042	0.00011005027813421143
34	0xbf02d8ccb3bddc45	-3.594755841523264e-05
35	0xbf218e89de5754b2	-0.00013394768681843566
36	0x3ed929b9b54de469	5.9993243056662e-06
37	0xbf224c85092523f7	-0.00013960956546046874
38	0xbf141f729368e522	-7.676255049994922e-05
39	0x3f0d88d90fcd507c	5.6332706640433724e-05
40	0x3efebeabb06ff547	2.932053305570073e-05
41	0x3efdb6156f661900	2.833486993261084e-05
42	0xbf02897c7fecb0b3	-3.535662835072017e-05
43	0x3ed7e3129196b4d7	5.6951050963319986e-06
44	0xbf21a3ec315c16c2	-0.00013458498204259843
45	0xbf2f5b1e609ec6d0	-0.00023922677820347469
46	0xbf2d6807e5f15612	-0.00022435280240766569
47	0xbf40e534b8f45cdc	-0.0005156047281244208
48	0xbfb61444194153a9	-0.0862467347772752
49	0x3f3f32f756730887	0.0004760602809704768
50	0xbf03e6f073eff02c	-3.796025566057989e-05
51	0xbee6072922cd2efc	-1.0503755299893617e-05
52	0xbf0ea4ca9112ac3d	-5.844824966890663e-05
53	0xbf201a65a3c2e43b	-0.0001228570052995997
54	0xbf1bb54884977cb4	-0.00010569815744741995
55	0x3f1c85ebb2d9de8c	0.00010880709734261746
56	0x3f0a86c53c057f1a	5.0595182531363965e-05
57	0x3f00729e3612ca52	3.137154886569529e-05
58	0x3f09f2572bb05f1e	4.948929332487653e-05
59	0xbf00d3386bbaf37d	-3.209129269297112e-05
60	0xbed5a59ae331935a	-5.161021863296677e-06
61	0xbf36a2cf16436cca	-0.00034539752802027464
62	0xbf2de1f35d801d55	-0.00022798629538576623
63	0xbf3e2201b1da791d	-0.0004597906243847415
64	0x3f6059d2923b8c44	0.0019959557265436818
65	0xbf37cb9ead92cf16	-0.0003630888364327551
66	0xbf0368ee750492ab	-3.702142442055708e-05
67	0x3f08691bffb8de7b	4.655949302584131e-05
68	0x3eb67b46a5ca9cdd	1.3400046078667175e-06
69	0x3f06127b1cc1c4d9	4.209936341304796e-05
70	0x3eabe8d0fbc208f1	8.317660937925612e-07
71	0x3f153097dabc3779	8.083273740685887e-05
72	0x3f253d23e6062f4b	0.00016203940596104036
73	0x3f236c38dfcd5c17	0.0001481837679430948
74	0x3f22d0cd00aa71e8	0.0001435518500628862
75	0x3ea239815b4681a5	5.431363008686242e-07
76	0xbef68fdf9091c413	-2.151680476853233e-05
77	0xbf23a669279b755b	-0.00014991792323019556
78	0xbf495c523410d833	-0.0007739449866963677
79	0x3f2be71c00050a7a	0.00021288124845327325
80	0xbf02f2c773ee5598	-3.614112073716951e-05
81	0xbf02b07f1f861dbb	-3.5647277346003097e-05
82	0xbf0f11ae4f3a22cf	-5.9259540560912414e-05
83	0x3efc876e2304c1b2	2.720739775091832e-05
84	0x3ef73a0ced29b6f3	2.2150764218790063e-05
85	0x3efa57ff39a188f9	2.512334649685478e-05
86	0xbefc24c2757e7b9f	-2.6839821060438783e-05
87	0x3f1177d1ba4e4ec8	6.663529945987866e-05
88	0x3f28a66b7810cd9d	0.00018806516530532345
89	0x3f221eff1d2b130f	0.0001382528704053855
90	0x3f1a5b2e5d180cd4	0.00010054083329440476
91	0x3f2a334be3ed3abd	0.00019989301105246228
92	0x3f04ca61db8370f8	3.9654837964172034e-05
93	0x3f1f20af139024d8	0.00011874264318136334
94	0xbf4e2d358ffe4ff5	-0.000920916703750495
95	0xbf031828e08a7127	-3.641962763831419e-05
96	0x3f067c00555efeb3	4.288555162146098e-05
97	0xbf30bcb7a70db63e	-0.0002553890581598917
98	0xbf0831ed51dadb02	-4.6148352550392735e-05
99	0xbf1b855452d64717	-0.00010498358888913168
100	0x3f0f20f89d11afde	5.937346180293045e-05
101	0x3f09650dbc2ac86f	4.843662420252268e-05
102	0x3f110385ed0c251b	6.490235251645599e-05
103	0x3ea0e7157af268a4	5.037388656370986e-07
104	0xbf2211d57cb42cdd	-0.000137860594215367
105	0xbef23b39db18c4fb	-1.7386771736298424e-05
106	0x3f1074b0eb6f2f4a	6.27739890283727e-05
107	0x3f30e34c8ec3e323	0.00025768870433711034
108	0x3f301a22fa787741	0.00024569848980770045
109	0x3f3caff9a98bb0af	0.00043773503561684695
110	0xbf4cc1f994f5aac3	-0.0008776158009998414
111	0xbf511ef8e88c8abb	-0.0010449820276298555
112	0x3f5559e0d708adaa	0.0013031669333355236
113	0x3f16a92faf33119a	8.644441168132456e-05
114	0xbf37758df1202234	-0.00035795894029936053
115	0x3f0638df51f796bc	4.238540190807996e-05
116	0xbf0004c0cfdcdd1c	-3.0552992014093986e-05
117	0x3f0cafe58d9498ec	5.471629419622086e-05
118	0x3efb15853fb6d74a	2.5829376665696063e-05
119	0xbf27102aef9439a9	-0.00017595790976838763
120	0xbf370007e60ea9da	-0.00035095398748788214
121	0xbf26f0d1bc8ffd1c	-0.000175023653611086
122	0xbf33f0bab9048340	-0.0003042655817058655
123	0xbf27f1dc2e63dde4	-0.00018268406638076364
124	0x3f3181e6eb4917b3	0.0002671421782774977
125	0x3f406853a0066859	0.0005007179570839612
126	0xbf19522d7a30aa85	-9.659197398607419e-05
127	0xbf26779f16b2ca16	-0.00017141167640984171
128	0x3f539421ed71d80f	0.001194985515920791
129	0xbf422323d203c4e6	-0.0005535054115438892
130	0xbf22b717049469f1	-0.0001427856061944756
131	0x3f20430a7984fba9	0.00012406828751384866
132	0x3f227056fd8e6c30	0.00014067708869167214
133	0x3f2e9571234de3c1	0.00023333555295915016
134	0x3f0739e23c203807	4.430028594991369e-05
135	0xbf314c0bf2550dbb	-0.0002639321486023989
136	0xbf1a086383db1143	-9.930713073475366e-05
137	0xbf2d35afe9f434af	-0.00022285244356404696
138	0xbf2feeb347b9cbae	-0.00024362505415672975
139	0x3ef56a3a9d8df4cd	2.042289438318884e-05
140	0x3f304f08b050c916	0.0002488514149404803
141	0x3ea505326ab1a483	6.264537736447489e-07
142	0xbf33843ea45631a1	-0.0002977993902611113
143	0xbf2cd6d5f18c1059	-0.0002200256501724309
144	0x3f5e24204bc83454	0.0018396678343635302
145	0xbf4326d19f208d45	-0.0005844615500375869
146	0x3f0d5d837a10f809	5.600984082619615e-05
147	0x3f21753fc0bfca32	0.000133194000568064
148	0x3f10a02e3aa73c6d	6.342203292962626e-05
149	0x3f20a1f9318cfa0c	0.00012689749635259905
150	0xbf0f4c21a76c305f	-5.969503120270623e-05
151	0xbf30fff9bf5ecc71	-0.00025939795829827474
152	0xbf30f74150f57dd8	-0.0002588781798830964
153	0xbf2db4097206cce7	-0.00022661795902720954
154	0xbf10ceb13f02973e	-6.411511253875694e-05
155	0x3f2210f2517d6f5e	0.00013783414828593804
156	0xbf1eaa4d9f316032	-0.00011697863355786332
157	0x3f123332457b551b	6.942743618350672e-05
158	0x3ee1effbd7badf56	8.553236276895016e-06
159	0x3f1e07e0619bdac6	0.00011455828680682475
160	0xbf2cd28f6716fc46	-0.00021989822884724476
161	0xbf421d14e68a5365	-0.0005527832082231453
162	0xbf14e1973242c94a	-7.965550736591557e-05
163	0x3f21c1d1237c7338	0.00013547590219156204
164	0x3f281514fa082653	0.00018373375952789264
165	0x3f00e111cfecd112	3.219447716276877e-05
166	0xbee2af20a158837a	-8.909269165137521e-06
167	0xbf2246f0568c166d	-0.00013944324316399488
168	0xbf254f2b194c97b9	-0.00016257668598845617
169	0xbef1d13dd242ef23	-1.6991948670094043e-05
170	0x3ef33445748d08d8	1.8314537814542075e-05
171	0xbf18892757a86484	-9.359648348840523e-05
172	0xbee11fdfc24f8766	-8.165601750268359e-06
173	0xbf12b03cc664e2b3	-7.12906927206141e-05
174	0x3ef05b41ebba8f23	1.5598749753777758e-05
175	0xbf438e2d49061ae0	-0.0005967827910787447
176	0x3f7dcf9c6c0b947b	0.007278071426047745
177	0xbf2e848af294f291	-0.00023283191812053077
178	0xbf172dd2060a7e4f	-8.842081434545203e-05
179	0xbf184f5d5db08549	-9.273536072431256e-05
180	0x3f130be526593b5e	7.265649909381003e-05
181	0x3f168982b650f61f	8.597240737714299e-05
182	0x3f082a22df35c71b	4.609030647885326e-05
183	0x3f1a1355e6993e4d	9.947025105216355e-05
184	0xbee8ef0123323750	-1.1889272263833746e-05
185	0xbf0d6982cbae6cab	-5.6099227968086966e-05
186	0xbf0734970361e594	-4.426084380866193e-05
187	0xbef92d68d7eca148	-2.4011021646648257e-05
188	0x3ef367fad8e38769	1.8507167219967468e-05
189	0xbf2323ca12285eb0	-0.000146025101529492
190	0x3f1c4f2207e8ee06	0.00010799069603078395
191	0xbf48591589a3ef1f	-0.0007430415310234229
192	0xbf798ae64315d9fd	-0.006235980473653144
193	0xbf229c0183312d64	-0.0001419784399295617
194	0xbf180f76892a361c	-9.178315148458026e-05
195	0x3f171785d9e7ab9a	8.808855498158714e-05
196	0xbf0e4bd9497e6994	-5.778557641563094e-05
197	0x3f1a07da9b34a0b7	9.929916159434863e-05
198	0x3f1f1824074c5b5a	0.00011861534023825446
199	0x3f0383ec8a47c2c2	3.72225343062741e-05
200	0x3f1b4c4c2697815e	0.00010413374697960029
201	0xbefe79d99603c2ec	-2.9064155911253978e-05
202	0xbf165781915fe1c9	-8.522728271021582e-05
203	0xbf153117e4f0e463	-8.084019030797774e-05
204	0xbf089122bdad921b	-4.68577124681827e-05
205	0xbf0efc892ef2df19	-5.9101997857023514e-05
206	0x3f20e6ae05c25e28	0.00012894510553417113
207	0x3f65532fdc8e269c	0.0026031431957037176
208	0xbf9ba9de7197ed38	-0.02701518600768546
209	0x3f4071aaff2d7730	0.0005018315263034308
210	0xbf3203a2a86c8023	-0.00027487488880417933
211	0xbf11322b43d3d24f	-6.559742992690822e-05
212	0x3f0a500d8530087c	5.018750439235526e-05
213	0x3ee63995e3deafef	1.0597678848110719e-05
214	0x3f09ae0423cc277b	4.898023732920108e-05
215	0x3f1abd3d166c4622	0.00010200200413759038
216	0x3f103063dc6860ce	6.175622466065013e-05
217	0x3f14fb61dfbe5e7d	8.003983378867571e-05
218	0x3eb4630b86863a67	1.2151536115976876e-06
219	0xbf0dc22daa8f3c4a	-5.675985205010803e-05
220	0xbf14f20a57c5129a	-7.990062835456572e-05
221	0x3f0b9e4a9a678faa	5.267777605746868e-05
222	0xbf25afdf0c86c8ca	-0.00016545865788725737
223	0xbf68956ca000bbe9	-0.003000938566422463
224	0xbfbbfbcf61770d4c	-0.10931106690900555
225	0x3ee248270c0a4e82	8.717463402952616e-06
226	0xbf04051c60ee0523	-3.818505148612597e-05
227	0xbf309202c2138605	-0.00025284354530982794
228	0xbf36085aff5040a8	-0.0003361913834973953
229	0xbf30e6875fb53fd8	-0.00025788121248115697
230	0xbf31fcd77d228b8b	-0.00027446995694385055
231	0xbf329de322056f36	-0.00028406901585297255
232	0xbf25a91fdf6416c2	-0.0001652575881012
233	0xbf1cd828eddb5d26	-0.00011003255664420296
234	0xbee2f63b7047aec6	-9.041712027056138e-06
235	0xbef89d688cfb892c	-2.3474575583723085e-05
236	0x3ef44c9917404432	1.9358836155506684e-05
237	0xbf36c63a9f129e05	-0.00034750872789365866
238	0xbf50440d14680c42	-0.0009927871448105617
239	0x3f67c8bf58dd3116	0.0029033410309350456
240	0xbf3857a7caad24dd	-0.00037143560864601
241	0x3f78367f9d2e6b9d	0.005911348812243225
242	0x3f388d3723de9160	0.0003746280307217655
243	0xbf479c42a0498c79	-0.0007205319712507838
244	0xbf4092062225eb32	-0.0005056886623572064
245	0xbf45d476b37c01a2	-0.0006661967845218895
246	0xbf3b0a167c3bd1cb	-0.0004125885863992789
247	0xbf3e910291e4fd08	-0.00046640694371898094
248	0xbf41c319d8975b84	-0.0005420566750967558
249	0xbf3a7ffb36bbd82f	-0.00040435679578310323
250	0xbf3edf28b4a3c888	-0.00047106498517657984
251	0xbef2279a699960b4	-1.7313671014513365e-05
252	0xbf50c354bbd443a2	-0.0010231330373395649
253	0xbf62c88cdbf40240	-0.0022928954273313817
254	0x3f24c66403e75816	0.00015850039376513807
255	0xbf67f96a7706988d	-0.0029265479463048195
